…
 f'trial_{i}_label_{label}_stft.png'))\\n\",\n    \"    plt.close()\\n\"\n   ]\n  },\n  {\n   \"cell_type\": \"code\",\n   \"execution_count\": 8,\n   \"metadata\": {},\n   \"outputs\": [\n    {\n     \"name\": \"stdout\",\n     \"output_type\": \"stream\",\n     \"text\": [\n      \"Model: \\\"sequential_1\\\"\\n\",\n      \"_________________________________________________________________\\n\",\n      \"Layer (type)                 Output Shape              Param #   \\n\",\n      \"=================================================================\\n\",\n      \"conv2d_3 (Conv2D)            (None, 222, 222, 32)      896       \\n\",\n      \"_________________________________________________________________\\n\",\n      \"max_pooling2d_3 (MaxPooling2 (None, 111, 111, 32)      0         \\n\",\n      \"_________________________________________________________________\\n\",\n      \"conv2d_4 (Conv2D)            (None, 109, 109, 64)      18496     \\n\",\n      \"_________________________________________________________________\\n\",\n      \"max_pooling2d_4 (MaxPooling2 (None, 54, 54, 64)        0         \\n\",\n      \"_________________________________________________________________\\n\",\n      \"conv2d_5 (Conv2D)            (None, 52, 52, 128)       73856     \\n\",\n      \"_________________________________________________________________\\n\",\n      \"max_pooling2d_5 (MaxPooling2 (None, 26, 26, 128)       0         \\n\",\n      \"_________________________________________________________________\\n\",\n      \"flatten_1 (Flatten)          (None, 86528)             0         \\n\",\n      \"_________________________________________________________________\\n\",\n      \"dense_2 (Dense)              (None, 64)                5537856   \\n\",\n      \"_________________________________________________________________\\n\",\n      \"dense_3 (Dense)              (None, 1)                 65        \\n\",\n      \"=================================================================\\n\",\n      \"Total params: 5,631,169\\n\",\n      \"Trainable params: 5,631,169\\n\",\n      \"Non-trainable params: 0\\n\",\n      \"_________________________________________________________________\\n\"\n     ]\n    }\n   ],\n   \"source\": [\n    \"from keras.models import Sequential\\n\",\n    \"from ke
…
